…
            "                                                                                                  \n",
            " input_38 (InputLayer)          [(None, 67, 7)]      0           []                               \n",
            "                                                                                                  \n",
            " input_39 (InputLayer)          [(None, 67, 7)]      0           []                               \n",
            "                                                                                                  \n",
            " tf.identity_100 (TFOpLambda)   (None, 1)            0           ['phi_shape[0][0]']              \n",
            "                                                                                                  \n",
            " tf.identity_101 (TFOpLambda)   (None, 1)            0           ['theta_shape[0][0]']            \n",
            "                                                                                                  \n",
            " tf.identity_97 (TFOpLambda)    (None, 1)            0           ['refractive_index_input[0][0]'] \n",
            "                                                                                                  \n",
            " tf.identity_96 (TFOpLambda)    (None, 1)            0           ['momentum_input[0][0]']         \n",
            "                                                                                                  \n",
            " tf.identity_99 (TFOpLambda)    (None, 2)            0           ['rad_position_input[0][0]']     \n",
            "                                                                                                  \n",
            " tf.identity_98 (TFOpLambda)    (None, 2)            0           ['mip_position_input[0][0]']     \n",
            "                                                                                                  \n",
            " dense_pion_1 (Dense)           (None, 67, 1024)     8192        ['input_37[0][0]']               \n",
            "                                                                                                  \n",
            " dense_kaon_1 (Dense)           (None, 67, 1024)     8192        ['input_38[0][0]']               \n",
            "                                                                                                  \n",
            " dense_proton_1 (Dense)         (None, 67, 1024)     8192        ['input_39[0][0]']               \n",
            "                                                                                                  \n",
            " dense_phi_1 (Dense)            (None, 1024)         2048        ['tf.identity_100[1][0]']        \n",
            "                                                                                                  \n",
            " dense_theta_1 (Dense)          (None, 1024)         2048        ['tf.identity_101[1][0]']        \n",
            "                                                                                                  \n",
            " dense_ref_index_1 (Dense)      (None, 1024)         2048        ['tf.identity_97[1][0]']         \n",
            "                                                                                                  \n",
            " dense_momentum_1 (Dense)       (None, 1024)         2048        ['tf.identity_96[1][0]']         \n",
            "                                                                                                  \n",
            " dense_rad_position_1 (Dense)   (None, 1024)         3072        ['tf.identity_99[1][0]']         \n",
            "                                                                                                  \n",
            " dense_mip_pos_1 (Dense)        (None, 512)          1536        ['tf.identity_98[1][0]']         \n",
            "                                                                                                  \n",
            " bn_pion_1 (BatchNormalization)  (None, 67, 1024)    4096        ['dense_pion_1[1][0]']           \n",
            "                                                                                                  \n",
            " bn_kaon_1 (BatchNormalization)  (None, 67, 1024)    4096        ['dense_kaon_1[1][0]']           \n",
            "                                                                                                  \n",
            " bn_proton_1 (BatchNormalizatio  (None, 67, 1024)    4096        ['dense_proton_1[1][0]']         \n",
            " n)                                                                                               \n",
            "                                                                                                  \n",
            " bn_phi_1 (BatchNormalization)  (None, 1024)         4096        ['dense_phi_1[1][0]']            \n",
            "                                                                                                  \n",
            " bn_theta_1 (BatchNormalization  (None, 1024)        4096        ['dense_theta_1[1][0]']          \n",
            " )                                                                                                \n",
            "                                                                                                  \n",
            " bn_ref_index_1 (BatchNormaliza  (None, 1024)        4096        ['dense_ref_index_1[1][0]']      \n",
            " tion)                                                                                            \n",
            "                                                                                                  \n",
            " bn_momentum_1 (BatchNormalizat  (None, 1024)        4096        ['dense_momentum_1[1][0]']       \n",
            " ion)                                                                                             \n",
            "                                                                                                  \n",
            " bn_rad_position_1 (BatchNormal  (None, 1024)        4096        ['dense_rad_position_1[1][0]']   \n",
            " ization)                                                                                         \n",
            "                                                                                                  \n",
            " bn_mip_pos_1 (BatchNormalizati  (None, 512)         2048        ['dense_mip_pos_1[1][0]']        \n",
            " on)                                                                                              \n",
            "                                                                                                  \n",
            " leakyrelu_pion_1 (LeakyReLU)   (None, 67, 1024)     0           ['bn_pion_1[1][0]']              \n",
            "                                                                                                  \n",
            " leakyrelu_kaon_1 (LeakyReLU)   (None, 67, 1024)     0           ['bn_kaon_1[1][0]']              \n",
            "                                                                                                  \n",
            " leakyrelu_proton_1 (LeakyReLU)  (None, 67, 1024)    0           ['bn_proton_1[1][0]']            \n",
            "                                                                                                  \n",
            " leakyrelu_phi_1 (LeakyReLU)    (None, 1024)         0           ['bn_phi_1[1][0]']               \n",
            "                                                                                                  \n",
            " leakyrelu_theta_1 (LeakyReLU)  (None, 1024)         0           ['bn_theta_1[1][0]']             \n",
            "                                                                                                  \n",
            " leakyrelu_ref_index_1 (LeakyRe  (None, 1024)        0           ['bn_ref_index_1[1][0]']         \n",
            " LU)                                                                                              \n",
            "                                                                                                  \n",
            " leakyrelu_momentum_1 (LeakyReL  (None, 1024)        0           ['bn_momentum_1[1][0]']          \n",
            " U)                                                                                               \n",
            "                                                                                                  \n",
            " leakyrelu_rad_position_1 (Leak  (None, 1024)        0           ['bn_rad_position_1[1][0]']      \n",
            " yReLU)                                                                                           \n",
            "                                                                                                  \n",
            " leakyrelu_mip_pos_1 (LeakyReLU  (None, 512)         0           ['bn_mip_pos_1[1][0]']           \n",
            " )                                                                                                \n",
            "                                                                                                  \n",
            " dropout_pion_1 (Dropout)       (None, 67, 1024)     0           ['leakyrelu_pion_1[1][0]']       \n",
            "                                                                                                  \n",
            " dropout_kaon_1 (Dropout)       (None, 67, 1024)     0           ['leakyrelu_kaon_1[1][0]']       \n",
            "                                                                                                  \n",
            " dropout_proton_1 (Dropout)     (None, 67, 1024)     0           ['leakyrelu_proton_1[1][0]']     \n",
            "                                                                                                  \n",
            " dropout_phi_1 (Dropout)        (None, 1024)         0           ['leakyrelu_phi_1[1][0]']        \n",
            "                                                                                                  \n",
            " dropout_theta_1 (Dropout)      (None, 1024)         0           ['leakyrelu_theta_1[1][0]']      \n",
            "                                                                                                  \n",
            " dropout_ref_index_1 (Dropout)  (None, 1024)         0           ['leakyrelu_ref_index_1[1][0]']  \n",
            "                                                                                                  \n",
            " dropout_momentum_1 (Dropout)   (None, 1024)         0           ['leakyrelu_momentum_1[1][0]']   \n",
            "                                                                                                  \n",
            " dropout_rad_position_1 (Dropou  (None, 1024)        0           ['leakyrelu_rad_position_1[1][0]'\n",
            " t)                                                              ]                                \n",
            "                                                                                                  \n",
            " dropout_mip_pos_1 (Dropout)    (None, 512)          0           ['leakyrelu_mip_pos_1[1][0]']    \n",
            "                                                                                                  \n",
            " dense_pion_2 (Dense)           (None, 67, 512)      524800      ['dropout_pion_1[1][0]']         \n",
            "                                                                                                  \n",
            " dense_kaon_2 (Dense)           (None, 67, 512)      524800      ['dropout_kaon_1[1][0]']         \n",
            "                                                                                                  \n",
            " dense_proton_2 (Dense)         (None, 67, 512)      524800      ['dropout_proton_1[1][0]']       \n",
            "                                                                                                  \n",
            " dense_phi_2 (Dense)            (None, 512)          524800      ['dropout_phi_1[1][0]']          \n",
            "                                                                                                  \n",
            " dense_theta_2 (Dense)          (None, 512)          524800      ['dropout_theta_1[1][0]']        \n",
            "                                                                                                  \n",
            " dense_ref_index_2 (Dense)      (None, 512)          524800      ['dropout_ref_index_1[1][0]']    \n",
            "                                                                                                  \n",
            " dense_momentum_2 (Dense)       (None, 512)          524800      ['dropout_momentum_1[1][0]']     \n",
            "                                                                                                  \n",
            " dense_rad_position_2 (Dense)   (None, 512)          524800      ['dropout_rad_position_1[1][0]'] \n",
            "                                                                                                  \n",
            " dense_mip_pos_2 (Dense)        (None, 256)          131328      ['dropout_mip_pos_1[1][0]']      \n",
            "                                                                                                  \n",
            " bn_pion_2 (BatchNormalization)  (None, 67, 512)     2048        ['dense_pion_2[1][0]']           \n",
            "                                                                                                  \n",
            " bn_kaon_2 (BatchNormalization)  (None, 67, 512)     2048        ['dense_kaon_2[1][0]']           \n",
            "                                                                                                  \n",
            " bn_proton_2 (BatchNormalizatio  (None, 67, 512)     2048        ['dense_proton_2[1][0]']         \n",
            " n)                                                                                               \n",
            "                                                                                                  \n",
            " bn_phi_2 (BatchNormalization)  (None, 512)          2048        ['dense_phi_2[1][0]']            \n",
            "                                                                                                  \n",
            " bn_theta_2 (BatchNormalization  (None, 512)         2048        ['dense_theta_2[1][0]']          \n",
            " )                                                                                                \n",
            "                                                                                                  \n",
            " bn_ref_index_2 (BatchNormaliza  (None, 512)         2048        ['dense_ref_index_2[1][0]']      \n",
            " tion)                                                                                            \n",
            "                                                                                                  \n",
            " bn_momentum_2 (BatchNormalizat  (None, 512)         2048        ['dense_momentum_2[1][0]']       \n",
            " ion)                                                                                             \n",
            "                                                                                                  \n",
            " bn_rad_position_2 (BatchNormal  (None, 512)         2048        ['dense_rad_position_2[1][0]']   \n",
            " ization)                                                                                         \n",
            "                                                                                                  \n",
            " bn_mip_pos_2 (BatchNormalizati  (None, 256)         1024        ['dense_mip_pos_2[1][0]']        \n",
            " on)                                                                                              \n",
            "                                                                                                  \n",
            " leakyrelu_pion_2 (LeakyReLU)   (None, 67, 512)      0           ['bn_pion_2[1][0]']              \n",
            "                                                                                                  \n",
            " leakyrelu_kaon_2 (LeakyReLU)   (None, 67, 512)      0           ['bn_kaon_2[1][0]']              \n",
            "                                                                                                  \n",
            " leakyrelu_proton_2 (LeakyReLU)  (None, 67, 512)     0           ['bn_proton_2[1][0]']            \n",
            "                                                                                                  \n",
            " leakyrelu_phi_2 (LeakyReLU)    (None, 512)          0           ['bn_phi_2[1][0]']               \n",
            "                                                                                                  \n",
            " leakyrelu_theta_2 (LeakyReLU)  (None, 512)          0           ['bn_theta_2[1][0]']             \n",
            "                                                                                                  \n",
            " leakyrelu_ref_index_2 (LeakyRe  (None, 512)         0           ['bn_ref_index_2[1][0]']         \n",
            " LU)                                                                                              \n",
            "                                                                                                  \n",
            " leakyrelu_momentum_2 (LeakyReL  (None, 512)         0           ['bn_momentum_2[1][0]']          \n",
            " U)                                                                                               \n",
            "                                                                                                  \n",
            " leakyrelu_rad_position_2 (Leak  (None, 512)         0           ['bn_rad_position_2[1][0]']      \n",
            " yReLU)                                                                                           \n",
            "                                                                                                  \n",
            " leakyrelu_mip_pos_2 (LeakyReLU  (None, 256)         0           ['bn_mip_pos_2[1][0]']           \n",
            " )                                                                                                \n",
            "                                                                                                  \n",
            " dropout_pion_2 (Dropout)       (None, 67, 512)      0           ['leakyrelu_pion_2[1][0]']       \n",
            "                                                                                                  \n",
            " dropout_kaon_2 (Dropout)       (None, 67, 512)      0           ['leakyrelu_kaon_2[1][0]']       \n",
            "                                                                                                  \n",
            " dropout_proton_2 (Dropout)     (None, 67, 512)      0           ['leakyrelu_proton_2[1][0]']     \n",
            "                                                                                                  \n",
            " dropout_phi_2 (Dropout)        (None, 512)          0           ['leakyrelu_phi_2[1][0]']        \n",
            "                                                                                                  \n",
            " dropout_theta_2 (Dropout)      (None, 512)          0           ['leakyrelu_theta_2[1][0]']      \n",
            "                                                                                                  \n",
            " dropout_ref_index_2 (Dropout)  (None, 512)          0           ['leakyrelu_ref_index_2[1][0]']  \n",
            "                                                                                                  \n",
            " dropout_momentum_2 (Dropout)   (None, 512)          0           ['leakyrelu_momentum_2[1][0]']   \n",
            "                                                                                                  \n",
            " dropout_rad_position_2 (Dropou  (None, 512)         0           ['leakyrelu_rad_position_2[1][0]'\n",
            " t)                                                              ]                                \n",
            "                                                                                                  \n",
            " dropout_mip_pos_2 (Dropout)    (None, 256)          0           ['leakyrelu_mip_pos_2[1][0]']    \n",
            "                                                                                                  \n",
            " flatpion (Flatten)             (None, 34304)        0           ['dropout_pion_2[1][0]']         \n",
            "                                                                                                  \n",
            " flatkaon (Flatten)             (None, 34304)        0           ['dropout_kaon_2[1][0]']         \n",
            "                                                                                                  \n",
            " flatproton (Flatten)           (None, 34304)        0           ['dropout_proton_2[1][0]']       \n",
            "                                                                                                  \n",
            " concat_scalars_2D (Concatenate  (None, 2816)        0           ['dropout_phi_2[1][0]',          \n",
            " )                                                                'dropout_theta_2[1][0]',        \n",
            "                                                                  'dropout_ref_index_2[1][0]',    \n",
            "                                                                  'dropout_momentum_2[1][0]',     \n",
            "                                                                  'dropout_rad_position_2[1][0]', \n",
            "                                                                  'dropout_mip_pos_2[1][0]']      \n",
            "                                                                                                  \n",
            " concat_scalars_all (Concatenat  (None, 105728)      0           ['flatpion[1][0]',               \n",
            " e)                                                               'flatkaon[1][0]',               \n",
            "                                                                  'flatproton[1][0]',             \n",
            "                                                                  'concat_scalars_2D[1][0]']      \n",
            "                                                                                                  \n",
            " dense_47 (Dense)               (None, 8)            845832      ['concat_scalars_all[1][0]']     \n",
            "                                                                                                  \n",
            " dropout_32 (Dropout)           (None, 8)            0           ['dense_47[1][0]']               \n",
            "                                                                                                  \n",
            " dense_48 (Dense)               (None, 4)            36          ['dropout_32[1][0]']             \n",
            "                                                                                                  \n",
            "==================================================================================================\n",
            "Total params: 5,265,196\n",
            "Trainable params: 5,239,084\n",
            "Non-trainable params: 26,112\n",
…
